…
      "source": "# import the modules we'll need\nfrom IPython.display import HTML\nimport pandas as pd\nimport numpy as np\nimport base64\nimport pickle\n\npickle.dump(model, open(\"finalized_model-no-test.sav\", 'wb'))\ntorch.save(model, \"model-no-test.pt\")\ntorch.save(model, \"model-no-test.pth\")",
      "execution_count": null,
      "outputs": []
    },
    {
      "metadata": {
        "trusted": true,
        "_uuid": "7a8dbc7aecdaa83c6f67e15a52cdbc320d29e1fd"
      },
      "cell_type": "code",
      "source": "model2 = torch.load(\"model-no-test.pth\")\nmodel2.eval()",
      "execution_count": 39,
      "outputs": [
        {
          "output_type": "execute_result",
          "execution_count": 39,
          "data": {
            "text/plain": "CNNModel2(\n  (layer1): Sequential(\n    (0): Conv2d(1, 16, kernel_size=(3, 3), stride=(1, 1), padding=(2, 2))\n    (1): BatchNorm2d(16, eps=1e-05, momentum=0.1, affine=True, track_running_stats=True)\n    (2): ReLU()\n  )\n  (layer2): Sequential(\n    (0): Conv2d(16, 16, kernel_size=(3, 3), stride=(1, 1), padding=(2, 2))\n    (1): BatchNorm2d(16, eps=1e-05, momentum=0.1, affine=True, track_running_stats=True)\n    (2): ReLU()\n  )\n  (layer3): Sequential(\n    (0): Conv2d(16, 16, kernel_size=(3, 3), stride=(1, 1), padding=(2, 2))\n    (1): BatchNorm2d(16, eps=1e-05, momentum=0.1, affine=True, track_running_stats=True)\n    (2): ReLU()\n    (3): MaxPool2d(kernel_size=2, stride=2, padding=0, dilation=1, ceil_mode=False)\n  )\n  (layer4): Sequential(\n    (0): Conv2d(16, 16, kernel_size=(3, 3), stride=(1, 1), padding=(2, 2))\n    (1): BatchNorm2d(16, eps=1e-05, momentum=0.1, affine=True, track_running_stats=True)\n    (2): ReLU()\n    (3): MaxPool2d(kernel_size=2, stride=2, padding=0, dilation=1, ceil_mode=False)\n  )\n  (layer5): Sequential(\n    (0): Conv2d(16, 32, kernel_size=(5, 5), stride=(1, 1), padding=(2, 2))\n    (1): BatchNorm2d(32, eps=1e-05, momentum=0.1, affine=True, track_running_stats=True)\n    (2): ReLU()\n    (3): MaxPool2d(kernel_size=2, stride=2, padding=0, dilation=1, ceil_mode=False)\n  )\n  (fc): Linear(in_features=800, out_features=6412, bias=True)\n)"
          },
          "metadata": {}
        }
      ]
    },
    {
      "metadata": {
        "trusted": true,
        "_uuid": "1baeba9e10b849fd2b2887d314b0a8bba1e05952"
      },
      "cell_type": "code",
      "source": "# import the modules we'll need\nfrom IPython.display import HTML\nimport pandas as pd\nimport numpy as np\nimport base64\
…
